han/early_stop_2025-02-28_17-42-48.pth (torch, 999414 bytes, 13 tensors)

layers.0.gat_layers.0.attn_l f4 [1, 8, 8]
-0.12816851 0.24373743 0.37730113 0.36468667 -0.10734974 -0.18108748 0.18522649 0.2677149
-0.016267298 0.04511883 0.13083136 0.07120127 0.38671806 -0.09474192 0.10634837 0.03349422
-0.07336575 -0.006494899 0.2148658 0.28635186 0.101731986 -0.13822998 0.32310987 0.22950426
0.22140846 -0.41718248 0.27802172 -0.12382025 0.11813263 0.013807462 0.057008736 0.08597294
-0.35021776 -0.41743615 -0.259372 0.14251567 -0.29008275 0.1968793 -0.30396393 0.21561284
-0.048414133 -0.15394805 -0.22683087 -0.030824797 -0.22857803 0.08965233 -0.23284627 -0.07347436
-0.14574467 -0.015568841 -0.522499 -0.5416464 0.03557279 -0.0025882989 -0.18370335 -0.017025286
-0.071989365 0.33091897 0.118317045 -0.121086 0.08705109 0.16201559 0.075656876 -0.037533533
00000000: 9b3e 03be 4e96 793e 9d2d c13e 36b8 ba3e
00000010: 2eda dbbd ff6e 39be 03ac 3d3e ed11 893e
00000020: ff42 85bc 86ce 383d a8f8 053e f9d1 913d
00000030: e9ff c53e 0d08 c2bd 2dcd d93d 3c31 093d
00000040: c840 96bd 29d3 d4bb c805 5c3e b69c 923e
00000050: dc58 d03d 298c 0dbe a86e a53e 2a03 6b3e
00000060: e6b8 623e f198 d5be dd58 8e3e 7995 fdbd
00000070: 85ef f13d b138 623c fe81 693d 9512 b03d
00000080: be4f b3be 31ba d5be 68cc 84be a1ef 113e
00000090: ba85 94be ba9a 493e 29a1 9bbe 9dc9 5c3e
000000a0: e64d 46bd 8fa4 1dbe 5a46 68be 4984 fcbc
000000b0: 5c10 6abe a49b b73d 416f 6ebe ba79 96bd
000000c0: 173e 15be 7414 7fbc 7fc2 05bf 57a9 0abf
000000d0: c6b4 113d 73a0 29bb bb1c 3cbe 9d78 8bbc
000000e0: 296f 93bd 366e a93e 3550 f23d f0fb f7bd
000000f0: d847 b23d 6ae7 253e fef1 9a3d c3bc 19bd

layers.0.gat_layers.0.attn_r f4 [1, 8, 8]
-0.10700573 -0.28054246 -0.014907507 0.06643238 0.17577645 0.033586122 0.0005247697 0.2852359
-0.08197499 0.31806642 -0.060058225 -0.18072364 -0.0012857232 -0.026547913 0.061805878 -0.095087126
0.02221392 -0.065974526 -0.018250976 -0.34876463 0.108563624 -0.07303815 0.06540774 0.051593296
-0.05680124 0.3916635 0.047803737 -0.30946255 0.26181015 0.14717187 -0.06871196 0.05191631
0.160411 -0.23093964 -0.024648394 -0.19877145 -0.047819525 0.1801203 0.02140337 -0.14066191
0.07752162 -0.2883487 0.114806354 0.00788608 -0.00073720096 -0.10366934 0.4140764 -0.2615461
0.30515018 0.12590624 0.16809857 -0.44844413 0.1674655 -0.049739692 -0.33993912 0.17347449
-0.24465388 0.3341939 0.009048948 0.08999094 0.0024527279 -0.04799848 0.23214743 -0.05582558
00000000: d225 dbbd 43a3 8fbe 9e3e 74bc b30d 883d
00000010: befe 333e 9a91 093d b390 093a 710a 923e
00000020: 81e2 a7bd 9ad9 a23e 9dff 75bd 9e0f 39be
00000030: b685 a8ba 027b d9bc 2928 7d3d 0abd c2bd
00000040: f7f9 b53c a71d 87bd 1283 95bc 4791 b2be
00000050: 9b56 de3d 0795 95bd 7ef4 853d 7e53 533d
00000060: 6ba8 68bd 1e88 c83e dacd 433d e071 9ebe
00000070: fb0b 863e 39b4 163e dbb8 8cbd 32a6 543d
00000080: c842 243e 717b 6cbe 6eeb c9bc be8a 4bbe
00000090: 68de 43bd 7571 383e 1f56 af3c ad09 10be
000000a0: a8c3 9e3d 71a2 93be 981f eb3d 9e34 013c
000000b0: b840 41ba 9750 d4bd d201 d43e 5fe9 85be
000000c0: a53c 9c3e 91ed 003e 0822 2c3e 789a e5be
000000d0: 137c 2b3e d9bb 4bbd 800c aebe 4ca3 313e
000000e0: 8c86 7abe 761b ab3e 0a42 143c 2c4d b83d
000000f0: f2bd 203b 0e9a 44bd 0eb8 6d3e 5da9 64bd

layers.0.gat_layers.0.bias f4 [64]
0.03402305 0.03706276 -0.010007451 0.010424479 0.004806611 0.022417516 0.025704954 -0.0010017572
0.044279575 0.046718255 0.07175303 0.0145154605 0.049774766 0.03644696 0.049128458 -0.007011989
0.045413077 0.03590654 0.031118367 9.6195145e-05 0.06568848 0.044403024 0.054852303 0.034247853
0.033860624 0.0153986085 0.029638214 -0.003106279 0.040968932 0.05114265 0.051130764 0.052693363
0.0063647027 0.04609579 0.021200253 -0.007785605 0.033723846 0.077333145 -0.014719947 -0.0032193407
0.036268614 0.046160433 0.03477121 0.022707503 -0.014072676 0.042080976 0.035556346 0.032466505
0.010835312 -0.014482264 -0.0020737709 0.005275895 0.05605039 0.00869803 -0.0023244144 0.04539799
-0.014231009 0.032622993 -0.021489752 -0.0054568728 0.010900871 0.036448725 0.06419778 0.051435158
00000000: c15b 0b3d 1fcf 173d 4bf6 23bc 6fcb 2a3c
00000010: c780 9d3b f0a4 b73c 3293 d23c 654d 83ba
00000020: 805e 353d a45b 3f3d 41f3 923d 41d2 6d3c
00000030: a0e0 4b3d 6849 153d ec3a 493d d4c4 e5bb
00000040: 1003 3a3d bc12 133d f2eb fe3c 60bc c938
00000050: af87 863d f2df 353d cfac 603d 7a47 0c3d
00000060: 70b1 0a3d 724a 7c3c d7cb f23c b792 4bbb
00000070: 0acf 273d f57a 513d 7e6e 513d ffd4 573d
00000080: ff8e d03b f0ce 3c3d 27ac ad3c 631e ffbb
00000090: 0422 0a3d d760 9e3d ef2b 71bc 93fb 52bb
000000a0: 668e 143d b912 3d3d 426c 0e3d 1605 ba3c
000000b0: 1591 66bc 1a5d 2c3d 88a3 113d 99fb 043d
000000c0: 9886 313c 0547 6dbc 1ae8 07bb 6ae1 ac3b
000000d0: 1895 653d 2f82 0e3c 3455 18bb 3ef3 393d
000000e0: 2e29 69bc b09f 053d 470b b0bc 91cf b2bb
000000f0: 9199 323c 424b 153d 207a 833d acad 523d

layers.0.gat_layers.0.fc.weight f4 [64, 1870]
0.02942498 0.00667247 -0.0057315365 0.035865124 0.06746043 0.033905342 0.09472078 0.006507005
0.035950042 0.03316447 0.042004835 0.029621031 0.048233137 -0.036028787 0.003905795 0.045409087
-0.05900675 -0.033690043 -0.0707026 -0.0027819814 0.019235063 0.054545358 0.094286986 -0.000761655
-0.029621065 -0.056954715 0.0657533 0.04347318 0.09981121 0.02701395 0.06858952 -0.016285945
-0.034454048 0.0025511459 -0.011992098 -0.04430713 0.044980973 0.0043232 -0.0176972 0.036477856
-0.022849187 -0.021350553 -0.030369913 -0.04384701 0.0016726623 0.01764309 0.0027466575 -0.022025596
0.088333115 0.021898184 -0.003936478 0.032802314 -0.010801595 -0.044150736 -0.057040688 -0.05523152
0.010462443 0.031095264 0.06522656 0.0069967397 -0.007843105 0.04668123 -0.0070107393 0.013079766
-0.021913968 -0.025020638 0.016039498 0.042288564 -0.024823716 -0.04002816 -0.011660107 -0.063286476
0.0045107068 0.0148644615 0.0029096112 0.030666113 -0.020364495 -0.05910445 -0.046024952 0.036215555
-0.026248626 0.022543367 -0.014135114 -0.069099136 -0.010739675 0.04314369 -0.027716076 -0.026970884
0.04749991 0.064348996 0.103375055 -0.048165724 0.00010293408 -0.00021766161 0.0060193907 0.01906632
-0.0075141503 -0.0057511283 0.035853814 0.035155818 -0.010497906 0.037715606 0.06425863 0.035531946
0.034817472 0.02373774 0.067345396 0.047715794 0.007111137 -0.021162095 -0.021824853 -0.057499103
0.0383993 -0.049621183 0.008643848 0.038916443 0.04977053 0.035445537 -0.001245395 -0.028617458
0.0393923 0.016470548 -0.01545171 -0.03402448 0.07229091 0.008329695 0.046235856 0.028918661
0.06842041 -0.07050968 -0.017227966 -0.018345103 0.018090036 0.0063806623 -0.048570324 -0.063056886
0.024143882 -0.020382864 -0.013505393 0.012722684 0.06442009 -0.0013925175 0.06643584 -0.07816288
-0.02021486 0.002970473 0.018975148 0.0067529357 -0.06079407 0.06090416 0.002799921 0.0044331867
0.032543544 0.037097692 -0.016944204 -0.01445333 -0.009691155 -0.037960336 -0.029590752 0.046535183
-0.016054304 -0.007622789 0.05085791 -0.0024582872 0.06461646 -0.024401756 -0.007970504 0.0030463717
-0.00900925 -0.009373258 0.11295289 0.058181755 -0.0017767416 0.003479417 0.012013732 0.066367656
-0.029201837 0.038442224 -0.05203931 0.051145546 0.039832473 0.050534684 -0.000163903 -0.061038386
0.046623126 0.025139278 -0.035567965 -0.0057213837 -0.032154914 0.0697783 0.019825125 0.013026109
-0.04597459 0.0031733878 -0.054472595 -0.0046886103 0.06158572 0.03042929 0.001298557 0.022452312
0.05906974 -0.03737015 0.078992456 0.062325813 0.00789368 0.014087287 -0.026750635 0.0030768437
0.025104038 0.016248789 -0.018921755 -0.057768956 -0.012044433 -0.04015892 0.17249775 -0.06682114
-0.011591324 0.014124598 -0.0424176 -0.034552038 -0.058294248 0.042723604 -0.0014744007 -0.016697276
-0.02171823 -0.06534287 -0.039332855 0.04119614 -0.002521737 -0.036738925 -0.019344134 0.048511278
0.07983468 -0.019703874 -0.0075067766 7.847464e-05 0.023570236 -0.03543871 0.021984318 -0.02197701
-0.004764467 0.0073648896 -0.0028632218 -0.020316223 0.016076125 -0.0071244007 -0.004202709 0.022110593
-0.009552852 -0.04186769 -0.015728451 -0.04618024 -0.03511358 0.015097526 -0.04704541 -0.013876745
00000000: a80c f13c bca4 da3b 9dcf bbbb 4fe7 123d
00000010: b228 8a3d 54e0 0a3d f8fc c13d b738 d53b
00000020: 5a40 133d 78d7 073d 430d 2c3d cea7 f23c
00000030: 1c90 453d ec92 13bd 5ef8 7f3b e1fe 393d
00000040: 10b1 71bd 92fe 09bd 86cc 90bd e751 36bb
00000050: da92 9d3c f46a 5f3d 8919 c13d cda9 47ba
00000060: e0a7 f2bc 5949 69bd aba9 863d ef10 323d
00000070: d269 cc3d 5c4c dd3c aa78 8c3d 1a6a 85bc
00000080: b01f 0dbd 2031 273b 817a 44bc 657b 35bd
00000090: f83d 383d a1a9 8d3b b8f9 90bc ce69 153d
000000a0: 382e bbbc 5be7 aebc 53ca f8bc ec98 33bd
000000b0: 3c3d db3a 3e88 903c 4401 343b 066f b4bc
000000c0: fee7 b43d d263 b33c 92fd 80bb b85b 063d
000000d0: 2cf9 30bc 67d7 34bd 7fa3 69bd 723a 62bd
000000e0: ab6a 2b3c 7fbb fe3c 8195 853d e844 e53b
000000f0: 5e80 00bc d134 3f3d 58ba e5bb 844c 563c
00000100: ec84 b3bc 15f8 ccbc 4465 833c c636 2d3d
00000110: 1b5b cbbc 91f4 23bd 090a 3fbc 579c 81bd
00000120: 8dce 933b 128a 733c 2daf 3e3b 8037 fb3c
00000130: 71d3 a6bc 8217 72bd a984 3cbd c356 143d
00000140: 5c07 d7bc deac b83c f796 67bc d983 8dbd
00000150: 76f5 2fbc 70b7 303d d30c e3bc 0bf2 dcbc
00000160: 448f 423d 68c9 833d 4db6 d33d 6c49 45bd
00000170: 50de d738 183c 64b9 4f3e c53b f930 9c3c
00000180: 4339 f6bb f673 bcbb 73db 123d 8cff 0f3d
00000190: 69ff 2bbc ae7b 1a3d 079a 833d f289 113d
000001a0: c49c 0e3d a675 c23c 62ec 893d a371 433d
000001b0: 8a04 e93b 215c adbc 09ca b2bc 2e84 6bbd
000001c0: 9648 1d3d 953f 4bbd ed9e 0d3c d966 1f3d
000001d0: 2fdc 4b3d 572f 113d 863c a3ba 296f eabc
000001e0: d259 213d 3eed 863c 2b29 7dbc 415d 0bbd
000001f0: 420d 943d 4679 083c cf61 3d3d d4e6 ec3c
00000200: 0020 8c3d 6167 90bd aa21 8dbc 7848 96bc
00000210: 8e31 943c e014 d13b adf1 46bd f823 81bd
00000220: 64c9 c53c f7f9 a6bc b945 5dbc ce72 503c
00000230: aeee 833d 2285 b6ba 840f 883d dc13 a0bd
00000240: a299 a5bc 44ac 423b c571 9b3c bb47 dd3b
00000250: 3403 79bd a476 793d e17e 373b 4444 913b
00000260: 614c 053d c0f3 173d 92ce 8abc a9cd 6cbc
00000270: a6c7 1ebc 4c7c 1bbd 4e68 f2bc ad9b 3e3d
00000280: 5184 83bc 97c8 f9bb 6250 503d 371b 21bb
00000290: a255 843d 31e6 c7bc b896 02bc a3a5 473b
000002a0: 899b 13bc 4b92 19bc d853 e73d fe4f 6e3d
000002b0: 8ee1 e8ba ee06 643b 3fd5 443c c4eb 873d
000002c0: b138 efbc 9875 1d3d 2c27 55bd fe7d 513d
000002d0: 6027 233d 75fd 4e3d 60dd 2bb9 6303 7abd
000002e0: e4f7 3e3d e3f0 cd3c b7af 11bd 727a bbbb
000002f0: dfb4 03bd ede7 8e3d 4d68 a23c 766b 553c
00000300: da4f 3cbd 9df8 4f3b a81e 5fbd eaa2 99bb
00000310: 4f41 7c3d d946 f93c 5834 aa3a e9ed b73c
00000320: 1df3 713d 7111 19bd ccc6 a13d 5a49 7f3d
00000330: 7e54 013c 5dce 663c 2624 dbbc dfa4 493b
00000340: fca6 cd3c 2e1c 853c cc01 9bbc 249f 6cbd
00000350: 0356 45bc ae7d 24bd 40a3 303e 86d9 88bd
00000360: 89e9 3dbc dc6a 673c 14be 2dbd 7086 0dbd
00000370: f3c5 6ebd f2fe 2e3d ae40 c1ba bac8 88bc
00000380: 6eea b1bc 7cd2 85bd 7d1b 21bd 49bd 283d
00000390: ba43 25bb 8e7b 16bd 9777 9ebc c3b3 463d
000003a0: 5d80 a33d 056a a1bc 68fb f5bb c092 a438
000003b0: 5e16 c13c 2e28 11bd 7518 b43c 2109 b4bc
000003c0: 3f1f 9cbb 2c55 f13b e4a4 3bbb 356e a6bc
000003d0: 14b2 833c ce73 e9bb e1b6 89bb 4621 b53c
000003e0: 9183 1cbc 747d 2bbd f4d8 80bc 7e27 3dbd
000003f0: 42d3 0fbd 9d5b 773c b0b2 40bd 495b 63bc

layers.0.gat_layers.1.attn_l f4 [1, 8, 8]
0.1590841 -0.1621707 -0.0591628 0.16383636 -0.1948647 0.4751423 -0.14508778 -0.046514094
0.32001853 0.10222985 -0.26606613 -0.2975458 -0.23851877 -0.1238882 -0.3032255 0.026068622
-0.092627324 0.2612081 -0.14056326 0.10650309 -0.11779769 -0.05999855 -0.20791116 -0.15257281
-0.21284682 0.036903933 0.17421769 -0.13903107 -0.122782 -0.4089461 -0.4521546 0.017740523
0.29703054 -0.31714612 -0.20313579 0.22216111 -0.09836151 -0.14552805 -0.12269096 0.3140953
0.37425908 -0.26483774 0.010151281 0.22847673 0.11133107 0.039858997 -0.042542063 -0.060998954
-0.30314288 0.20498699 -0.23832203 0.042765636 -0.13029394 0.01845939 -0.1460838 0.13235168
-0.1586978 0.014365376 -0.17605045 0.17606515 -0.35273775 -0.263505 0.060308356 -0.03531027
00000000: f1e6 223e 1310 26be b154 72bd b8c4 273e
00000010: 9d8a 47be da45 f33e e491 14be 9085 3ebd
00000020: 78d9 a33e e25d d13d d239 88be ec57 98be
00000030: 443e 74be 19b9 fdbd 5f40 9bbe dd8d d53c
00000040: 65b3 bdbd 11bd 853e d1ef 0fbe 4b1e da3d
00000050: ea3f f1bd 0ac1 75bd aae6 54be 0c3c 1cbe
00000060: 84f4 59be 9428 173d 1f66 323e 295e 0ebe
00000070: 2175 fbbd 6261 d1be cf80 e7be 9354 913c
00000080: 6314 983e fa60 a2be d402 50be 347e 633e
00000090: c271 c9bd 4e05 15be 6645 fbbd 19d1 a03e
000000a0: e39e bf3e d098 87be 8f51 263c cef5 693e
000000b0: 8b01 e43d 3043 233d 9640 2ebd 0ada 79bd
000000c0: 8b35 9bbe 1ce8 513e b10a 74be 052b 2f3d
000000d0: c66b 05be 2638 973c fe96 15be 3387 073e
000000e0: ad81 22be c15c 6b3c 9246 34be 6c4a 343e
000000f0: 0b9a b4be 21ea 86be e505 773d 80a1 10bd

layers.0.gat_layers.1.attn_r f4 [1, 8, 8]
0.0072918083 -0.1596173 -0.36011437 0.028783344 -0.36266667 -0.016049827 0.03266812 -0.023462314
0.45083037 -0.008084958 0.050550193 0.18654433 -0.09448267 0.41515625 -0.24345621 0.14581536
-0.010648554 0.077846855 -0.106792994 -0.12282427 0.03179402 -0.12897788 -0.049586143 0.02674683
-0.06871226 0.017429484 0.26137447 -0.28761736 -0.035655018 0.003174825 -0.21251026 0.16335152
0.2636606 0.16391084 0.023288727 -0.009502569 -0.2315653 0.12008304 -0.44853517 0.49930483
0.035900276 -0.101413995 -0.059554063 -0.019454086 0.3009569 0.23045602 -0.17205079 -0.008452384
0.041053507 -0.038905926 -0.1038207 0.042018928 -0.42618772 0.13189156 0.11063378 0.04241526
0.0058646845 -0.08991079 -0.06606307 -0.070816666 -0.2311516 0.48983288 -0.13847427 0.3524403
00000000: 1ff0 ee3b b872 23be e960 b8be 0ccb eb3c
00000010: 72af b9be ed7a 83bc 02cf 053d 0a34 c0bc
00000020: 3dd3 e63e c676 04bc b80d 4f3d 7a05 3f3e
00000030: 2180 c1bd 5c8f d43e 964c 79be 9f50 153e
00000040: 4677 2ebc 2c6e 9f3d 49b6 dabd 4a8b fbbd
00000050: 723a 023d c712 04be d71a 4bbd 2b1c db3c
00000060: 03b9 8cbd 47c8 8e3c e0d2 853e 9542 93be
00000070: ff0a 12bd ba10 503b 4a9c 59be 9f45 273e
00000080: 86fe 863e 3ed8 273e 00c8 be3c aab0 1bbc
00000090: 741f 6dbe 19ee f53d 67a6 e5be e2a4 ff3e
000000a0: 2b0c 133d 24b2 cfbd f6ee 73bd 2d5e 9fbc
000000b0: 0617 9a3e aafc 6b3e 152e 30be de7b 0abc
000000c0: b927 283d d25b 1fbd f29f d4bd 0a1c 2c3d
000000d0: 4735 dabe 950e 073e f793 e23d a0bb 2d3d
000000e0: 8a2c c03b 2623 b8bd 134c 87bd 5408 91bd
000000f0: 01b3 6cbe 60cb fa3e 33cc 0dbe 0e73 b43e

layers.0.gat_layers.1.bias f4 [64]
-0.00095961214 0.018060623 0.02265078 -0.012005258 0.048722923 -0.0014329804 0.006252062 -0.02723357
0.02223179 0.032713592 0.053853605 -0.020048397 0.06366585 0.025170866 0.035517063 -0.012204865
0.015543451 0.02120778 0.0077209063 -0.026177865 0.029164057 0.01903459 0.026964555 0.0103565855
0.0330473 0.009959858 0.039357714 -0.008498779 0.015189125 0.040565208 0.054556932 0.035262585
0.0140617695 0.029691484 0.045425672 -0.014563218 0.027926913 0.049984634 0.008417684 -0.008039555
0.009459746 0.028389657 0.02899535 -0.008607486 -0.0069983783 0.027280817 0.046208803 0.0063157068
0.0017332652 -0.004440416 0.0055974885 -0.030375795 0.0482866 0.009002195 -0.024845818 0.03726579
0.00022489463 0.033210855 0.014057415 0.00043247148 0.037681095 0.028149202 0.037026685 0.028141834
00000000: 7b8e 7bba dff3 933c 218e b93c b4b1 44bc
00000010: b091 473d d8d2 bbba 19de cc3b f018 dfbc
00000020: 711f b63c b0fe 053d 9995 5c3d 893c a4bc
00000030: 3e63 823d 2233 ce3c 577a 113d eaf6 47bc
00000040: f5a9 7e3c f0bb ad3c a8ff fc3b f672 d6bc
00000050: 76e9 ee3c 6eee 9b3c c5e4 dc3c abae 293c
00000060: 9b5c 073d ac2e 233c 8e35 213d 763e 0bbc
00000070: cfdb 783c b427 263d 1777 5f3d 806f 103d
00000080: 5663 663c 8e3b f33c 4510 3a3d 909a 6ebc
00000090: fbc6 e43c b0bc 4c3d 53ea 093c 56b8 03bc
000000a0: 0dfd 1a3c 6d91 e83c a887 ed3c 6a06 0dbc
000000b0: a752 e5bb 057c df3c 7145 3d3d fdf3 ce3b
000000c0: bb2e e33a e980 91bb 236b b73b a9d6 f8bc
000000d0: 2bc8 453d f17d 133c 7589 cbbc 03a4 183d
000000e0: b1d1 6b39 1b08 083d 1251 663c 57bd e239
000000f0: 7e57 1a3d 2899 e63c 4ba9 173d b489 e63c

layers.0.gat_layers.1.fc.weight f4 [64, 1870]
0.011306479 -0.026765969 -0.0040219165 0.0029188227 0.01314176 -0.07787814 0.004605786 0.0015135997
0.00048197526 0.007557515 0.055662807 -0.033542283 0.055936668 0.000836318 -0.09552427 -0.027632736
-0.05505152 0.013076096 -0.0042560967 -0.0048987456 -0.010634979 0.042497635 -0.03057059 -0.0162735
0.006720595 0.006763938 -0.04313473 0.0037943753 -0.010517745 0.010237768 -0.0112556685 0.0025592018
-0.025206326 -0.0012040081 -0.013295502 -0.009504152 0.0021112305 -0.0015577485 0.010550263 -0.012384548
0.0051109064 -0.010075029 -0.0067906994 -0.010435994 -0.04320883 -0.03905622 -0.010569669 -0.005471424
-0.0042894064 -0.0038217653 -0.012285808 -0.055649202 0.014090367 -0.02948221 -0.01612933 -0.022901813
0.06333333 0.028106604 0.028258821 0.018178137 -0.043583404 0.01859036 -0.024569955 0.02801081
-0.045212884 -0.0071250843 0.028689437 0.014697559 -0.019742291 -0.013506864 0.011363984 -0.05570631
0.008046109 0.018329991 -0.041250814 -0.031653255 -0.010370228 -0.0042797057 -0.0034721745 0.029324796
0.014141627 0.0007602812 -0.015324703 0.007473818 -0.002837325 -0.009236602 -0.011862261 -0.042960834
-0.036731984 0.006862402 0.04971524 -0.010279752 0.009635942 -0.010014589 0.0053139054 0.0132688
0.040897258 0.0009211334 -0.008714268 0.051311333 -0.009430118 0.004917693 -0.01608862 -0.0138344625
-0.011326317 0.013264894 0.011323478 -0.012329143 -0.012669201 -0.01788883 -0.035159428 -0.008877878
0.012636934 0.0028301966 0.005107438 -0.03471918 -0.009835177 0.04211898 -0.030613665 -0.02416114
-0.009301852 0.0119699 0.015982874 0.009398546 0.003430807 0.0021159598 0.012214125 0.0019197513
-0.04650802 -0.019943913 -0.004855301 0.00525062 0.0014012827 -0.012444421 0.022839861 -0.03044672
0.0035766358 0.008205658 -0.0090441145 0.02158004 -0.010264212 -0.0044654603 0.015132017 -0.008607879
-0.009632678 -0.00011840104 -0.02380484 0.031607423 -0.008230676 0.0066023814 -0.002266029 -0.014811825
0.01038806 0.0019905255 0.0143189235 -0.015017695 0.00091355195 0.003275944 -0.001798928 -0.02917134
0.009393706 -0.0002616851 0.009563271 -0.021044575 0.0007511308 0.011635415 -0.012350893 0.020022064
-0.005441342 0.0016834595 0.011816651 0.002944049 0.011198186 0.0125254905 0.0069886185 -0.0075944895
-0.0029419824 -0.035343084 -0.010861986 -0.016083628 0.0051432205 0.010238886 0.012679843 -0.030832026
0.012035158 0.02508571 0.0152841145 0.0156166665 0.0017956655 0.0073082284 0.008618293 0.0030282692
0.016512927 -0.015289787 -0.009701195 0.0070474055 0.00956738 0.014334627 -0.0014549494 -0.012734866
-0.046846338 0.0066583566 0.0076130293 0.014076435 0.045416728 -0.0011290893 0.009885927 0.005710232
-0.01103841 0.0059860838 0.013172796 -0.014126189 0.0035487413 0.006987234 0.03247288 -0.01881326
0.010828515 0.012103934 -0.02173315 -0.018141335 -0.003086112 -0.0049876105 0.01181953 0.012973331
-0.0012308196 0.00865987 0.0019058689 0.00731717 -0.018228255 0.0012200621 -0.0020106982 0.0070921807
0.028185602 8.8875095e-06 0.007910359 -0.012790522 -0.0044216216 -0.00634873 -0.00028389692 -0.010530954
-0.003598908 -0.043209594 0.010112192 -0.0073589967 0.00946622 -0.015459364 0.0036253496 0.004479356
0.0047633434 -0.007225739 -0.0020371142 0.0013807237 -0.019279467 -0.016239729 -0.011529962 0.031588428
00000000: cf3e 393c 4e44 dbbc 48ca 83bb b849 3f3b
00000010: 8950 573c 937e 9fbd 22ec 963b fa63 c63a
00000020: a0b1 fc39 08a5 f73b affe 633d a263 09bd
00000030: d91d 653d 5a3c 5b3a 3aa2 c3bd 0c5e e2bc
00000040: b47d 61bd 1f3d 563c ba76 8bbb a885 a0bb
00000050: 563e 2ebc 0012 2e3d 2d6f fabc 0150 85bc
00000060: 7038 dc3b 06a4 dd3b 0bae 30bd 0eab 783b
00000070: 9f52 2cbc 50bc 273c b269 38bc 48b8 273b
00000080: 7f7d cebc cfcf 9dba 61d5 59bc 4eb7 1bbc
00000090: 925c 0a3b 5e2d ccba 03db 2c3c 8fe8 4abc
000000a0: 6479 a73b bc11 25bc 8484 debb bbfb 2abc
000000b0: befb 30bd 6af9 1fbd 682c 2dbc a249 b3bb
000000c0: 268e 8cbb 9576 7abb 6a4a 49bc 6bf0 63bd
000000d0: 48db 663c ad84 f1bc a821 84bc 959c bbbc
000000e0: e8b4 813d d23f e63c 0b7f e73c 51ea 943c
000000f0: 8384 32bd d04a 983c ee46 c9bc ed76 e53c
00000100: 2531 39bd 8a79 e9bb 1c06 eb3c 08ce 703c
00000110: 96ba a1bc e54b 5dbc 0130 3a3c 4d2c 64bd
00000120: d4d3 033c c728 963c 9df6 28bd d8a6 01bd
00000130: e4e7 29bc c63c 8cbb 6c8d 63bb 8e3a f03c
00000140: 48b2 673c 9c4d 473a 7714 7bbc eee6 f43b
00000150: 6af2 39bb 1e55 17bc ee59 42bc b3f7 2fbd
00000160: 4774 16bd 00de e03b 35a2 4b3d 686c 28bc
00000170: 12e0 1d3c 3b14 24bc 4520 ae3b 6265 593c
00000180: e283 273d 3778 713a 4ac6 0ebc d52b 523d
00000190: c880 1abc 9924 a13b 48cc 83bc f1a9 62bc
000001a0: 0492 39bc ff54 593c 1c86 393c 2c00 4abc
000001b0: 7b92 4fbc 988b 92bc 5503 10bd 8574 11bc
000001c0: 250b 4f3c d27a 393b 4c5c a73b b335 0ebd
000001d0: b923 21bc f484 2c3d 82c9 fabc 95ed c5bc
000001e0: cc66 18bc 661d 443c 84ee 823c 5cfc 193c
000001f0: 64d7 603b eaab 0a3b c11d 483c 2aa0 fb3a
00000200: 327f 3ebd 6b61 a3bc 3819 9fbb 650d ac3b
00000210: 3fab b73a afe3 4bbc a91a bb3c 666b f9bc
00000220: fe65 6a3b 0671 063c c42d 14bc a0c8 b03c
00000230: 3a2b 28bc ff52 92bb 48ec 773c 1008 0dbc
00000240: 61d2 1dbc 134e f8b8 5e02 c3bc c976 013d
00000250: f5d9 06bc ca58 d83b a881 14bb 4cad 72bc
00000260: ae32 2a3c 7a73 023b eb99 6a3c c70c 76bc
00000270: 6f7b 6f3a 38b1 563b 02ca ebba bcf8 eebc
00000280: 0fe8 193c c832 89b9 44af 1c3c ac65 acbc
00000290: 89e7 443a 78a2 3e3c 665b 4abc 5005 a43c
000002a0: 494d b2bb 87a7 dc3a a09a 413c f2f0 403b
000002b0: 9978 373c b737 4d3c c800 e53b 32db f8bb
000002c0: 46ce 40bb e9c3 10bd 79f6 31bc d0c1 83bc
000002d0: 7688 a83b 00c1 273c 1ebf 4f3c 7293 fcbc
000002e0: 1d2f 453c 8c80 cd3c 396a 7a3c 0cdd 7f3c
000002f0: 895c eb3a dd79 ef3b be33 0d3c ed75 463b
00000300: 1e46 873c 0482 7abc c3f1 1ebc eced e63b
00000310: 80c0 1c3c c9db 6a3c 00b4 beba e6a5 50bc
00000320: f2e1 3fbd 582e da3b b876 f93b d9a0 663c
00000330: e406 3a3d f3fd 93ba 95f8 213c e61c bb3b
00000340: 72da 34bc e926 c43b b6d2 573c 8871 67bc
00000350: 0092 683b 2bf5 e43b 4802 053d 441e 9abc
00000360: 156a 313c 944f 463c b809 b2bc 239d 94bc
00000370: 5e40 4abb 1c6f a3bb b4a6 413c 188e 543c
00000380: 7453 a1ba 21e2 0d3c 59ce f93a dfc4 ef3b
00000390: 6c53 95bc 7eea 9f3a ebc5 03bb 8665 e83b
000003a0: 7ee5 e63c 901b 1537 739a 013c 568f 51bc
000003b0: 40e3 90bb 0209 d0bb 00d8 94b9 068a 2cbc
000003c0: a8db 6bbb 8bfc 30bd 9bad 253c bd23 f1bb
000003d0: 3418 1b3c 4649 7dbc 4697 6d3b 90c7 923b
000003e0: d215 9c3b e4c5 ecbb 1b81 05bb 66f9 b43a
000003f0: f9ef 9dbc 2e09 85bc 2ae8 3cbc de62 013d

layers.0.semantic_attention.project.0.weight f4 [128, 64]
-0.028204653 -0.09525919 0.04683059 -0.0029153521 0.01094476 0.009656473 0.00931757 0.017267955
0.009152048 0.02521922 0.005654193 0.021074789 0.0061053447 0.023660395 0.004921903 -0.010462372
0.037599437 -0.016301995 0.013438359 -0.045542475 -0.0019572042 -0.0075018974 0.022388957 0.018269505
0.043576244 0.027228838 -0.014520749 0.058519967 0.043730613 0.02482577 -0.009031832 0.015847616
0.07414526 -0.019975811 -0.05701779 -0.011997169 -0.043992255 -0.0065713506 0.0112833725 -0.004765655
-0.099658564 -0.0073995674 0.025113309 0.0504028 0.034731783 -0.04194285 -0.023471087 0.044272937
-0.009247261 0.00887049 0.06830141 0.06155768 0.016717672 -0.038461618 -0.013734677 0.021573447
-0.03507796 -0.041949593 0.024106992 0.023454068 0.07699886 -0.056848302 0.021548692 0.020362973
0.07669407 0.026578153 0.014543214 0.02545757 0.024733867 0.024027927 0.0012433763 0.018664505
0.016061045 -0.009596887 0.0042112283 0.04784835 0.013066679 0.0014796918 -0.007340028 -0.008409126
-0.019797694 0.00941384 -0.0027699522 0.025095323 -0.0056290305 -0.009445876 -0.014278692 0.077430315
-0.037836794 -0.014677353 0.054242548 -0.023318904 0.046566192 0.024671026 0.011530396 -0.014450241
-0.024508296 -0.030610241 -0.021501146 -0.0049723545 0.02447016 0.049423046 -0.020073175 -0.012590657
0.05736142 -0.03155811 -0.045311995 0.04880645 0.014746375 -0.031537354 -0.0036642214 0.013801704
-0.059783433 0.0007488101 -0.0070464737 -0.032848373 0.0065863538 -0.017810218 -0.076046 0.0035777162
-0.017981699 0.015717186 -0.0017534882 -0.033844866 -0.03800698 0.044596493 0.021968566 0.042009316
0.062250715 -0.005251594 0.022172498 0.002173489 0.01830834 0.0039276434 0.010100199 -0.054289527
-0.0012468769 0.0018980154 -0.022724727 -0.016054299 0.003276367 0.0048334906 -0.023298472 -0.004312005
0.021803427 0.006199184 0.009485351 0.00057826727 0.025166191 -0.0055136583 0.01765132 0.036665
0.031778194 -0.00092079025 0.015519547 -0.04337616 -0.031207457 -0.04322607 0.0109851565 0.014072279
-0.03841386 -0.0056867255 -0.021929724 -0.0038879653 0.0048398525 0.0131975785 -0.017959999 -0.03944355
-0.0016434129 -0.0019523683 -0.0005248983 -0.025653366 -0.015947804 0.028830305 -0.005313982 0.02075373
-0.0038537225 2.666912e-05 -0.010315392 0.023535077 0.0021792399 0.022773147 0.006003569 0.010914781
-0.016620249 -0.0015444984 -0.0058123735 -0.015708074 -0.012339931 0.04784062 0.01644206 0.008191271
-0.022857027 0.05030502 0.011459855 0.040452246 0.042413708 0.024206454 0.010823522 0.089910455
-0.053367652 0.020603739 0.02979039 0.096046366 0.00831319 -0.008658284 0.037030753 0.017795317
0.056000046 -0.017611125 -0.020321254 -0.027794223 -0.02413107 -0.008558616 0.023277676 0.05851567
0.091092214 -0.03332544 -0.064041555 0.06194938 0.007556745 -0.03361626 0.0049272655 -0.030239195
-0.023591373 -0.017327206 0.012675582 -0.0030094758 -0.021293474 -0.05477556 0.027720409 0.05598851
-0.019833554 -0.016854385 -0.015913654 0.0003307506 0.05339346 -0.0062761 0.0050925557 -0.039348144
0.09658661 0.014609841 0.060769662 0.049568184 0.014340192 0.039211996 0.0428883 -0.045467485
0.05389855 0.04352759 0.0027284143 -0.034718286 -0.045565642 -0.08255208 0.046382904 0.012080909
00000000: 720d e7bc 4017 c3bd 6fd1 3f3d 7e0f 3fbb
00000010: a751 333c 2f36 1e3c b9a8 183c 8775 8d3c
00000020: 79f2 153c 8a98 ce3c cf46 b93b 09a5 ac3c
00000030: 580f c83b 72d3 c13c ea47 a13b 5e6a 2bbc
00000040: de01 1a3d c38b 85bc 902c 5c3c bf8a 3abd
00000050: 7044 00bb 7ad2 f5bb 0c69 b73c eea9 953c
00000060: 017d 323d 030f df3c 70e8 6dbc a2b2 6f3d
00000070: df1e 333d 6a5f cb3c 40fa 13bc dcd2 813c
00000080: 78d9 973d 50a4 a3bc 7c8b 69bd c68f 44bc
00000090: 3931 34bd 7c54 d7bb e5dd 383c 3629 9cbb
000000a0: ca19 ccbd 1278 f2bb 6dba cd3c 2b73 4e3d
000000b0: ea42 0e3d 44cc 2bbd 7046 c0bc 8a57 353d
000000c0: d381 17bc 8855 113c 9ce1 8b3d e823 7c3d
000000d0: 80f3 883c ee89 1dbd 6907 61bc ccba b03c
000000e0: e8ad 0fbd 56d3 2bbd 077c c53c bf22 c03c
000000f0: 94b1 9d3d c4d9 68bd e286 b03c 40d0 a63c
00000100: c811 9d3d 6dba d93c a946 6e3c 658c d03c
00000110: ae9e ca3c 37d6 c43c c9f8 a23a 4ee6 983c
00000120: 7492 833c 433c 1dbc 58fe 893b a2fc 433d
00000130: a015 563c 38f2 c13a 9e84 f0bb 6ec6 09bc
00000140: c62e a2bc 823c 1a3c 1688 35bb b594 cd3c
00000150: bb73 b8bb e0c2 1abc 2df1 69bc c993 9e3d
00000160: c1fa 1abd 4879 70bc 6f2d 5e3d 4907 bfbc
00000170: 31bc 3e3d e41a ca3c fce9 3c3c b4c0 6cbc
00000180: 9fc5 c8bc 54c2 fabc 2c23 b0bc 22ef a2bb
00000190: a575 c83c d26f 4a3d 8070 a4bc 0b49 4ebc
000001a0: cff3 6a3d 1443 01bd 1299 39bd 46e9 473d
000001b0: c89a 713c 502d 01bd 6f23 70bb 8b20 623c
000001c0: 79df 74bd cc4b 443a 1be6 e6bb 048c 06bd
000001d0: 57d2 d73b bce6 91bc 01be 9bbd 1e78 6a3b
000001e0: 5b4e 93bc 54c1 803c 4dd5 e5ba eaa0 0abd
000001f0: 35ad 1bbd d0aa 363d 6cf7 b33c f611 2c3d
00000200: 9bfa 7e3d 9015 acbb 19a3 b53c 1871 0e3b
00000210: 5ffb 953c 76b3 803b 4e7b 253c b25e 5ebd
00000220: 3f6e a3ba d4c6 f83a 3529 babc 4e84 83bc
00000230: 51b8 563b 4262 9e3b 70dc bebc b84b 8dbb
00000240: 1a9d b23c 8622 cb3b 7268 1b3c dc96 173a
00000250: 5429 ce3c ebab b4bb 8099 903c 0a2e 163d
00000260: da29 023d 3061 71ba b345 7e3c 33ab 31bd
00000270: c8a6 ffbc d20d 31bd 16fb 333c 6b8f 663c
00000280: da57 1dbd b657 babb f7a5 b3bc 3ccd 7ebb
00000290: a097 9e3b a83a 583c d920 93bc 8f8f 21bd
000002a0: c967 d7ba 9ce6 ffba 5499 09ba 0227 d2bc
000002b0: f8a4 82bc 882d ec3c e920 aebb ba03 aa3c
000002c0: bc8e 7cbb 80b7 df37 e401 29bc a2cc c03c
000002d0: 94d1 0e3b c08e ba3c 96b9 c43b e9d3 323c
000002e0: 3027 88bc c470 caba b975 bebb 38ae 80bc
000002f0: 6c2d 4abc 87f4 433d 80b1 863c ae34 063c
00000300: a93e bbbc a30c 4e3d 1ec2 3b3c 41b1 253d
00000310: ffb9 2d3d 9d4c c63c 2455 313c f922 b83d
00000320: 0a98 5abd 2cc9 a83c fa0a f43c f5b3 c43d
00000330: 0c34 083c 7adb 0dbc 8fad 173d 7cc7 913c
00000340: 4e60 653d 3545 90bc c278 a6bc b6b0 e3bc
00000350: 86ae c5bc 7039 0cbc d3b0 be3c 21ae 6f3d
00000360: 8e8e ba3d 4280 08bd 3828 83bd a2be 7d3d
00000370: 929e f73b 34b1 09bd e674 a13b 30b8 f7bc
00000380: b242 c1bc c9f1 8dbc 3fad 4f3c a03a 45bb
00000390: a76f aebc 565c 60bd e915 e33c 3554 653d
000003a0: fa79 a2bc 3512 8abc 5a5d 82bc 9868 ad39
000003b0: 1ab3 5a3d bea7 cdbb 74df a63b 852b 21bd
000003c0: 33cf c53d 1d5e 6f3c 9ce9 783d 0208 4b3d
000003d0: 20f3 6a3c c29c 203d a4ab 2f3d 1d3c 3abd
000003e0: bac4 5c3d fc49 323d 32cf 323b c334 0ebd
000003f0: 0aa3 3abd 1111 a9bd 00fc 3d3d 01ef 453c

layers.0.semantic_attention.project.0.bias f4 [128]
-0.012925345 0.0047611315 0.003136711 -0.005959563 -0.024253715 -0.018151855 0.005829144 -0.00017032796
0.026172105 -0.0015455015 0.016760677 -0.034100067 0.018967284 0.0054234806 -0.015584735 0.017297707
0.0020894664 0.0012100188 0.018405229 0.008351615 0.009017616 -0.023305519 -0.0073648645 -0.0048118476
0.027591504 -0.034276232 -0.039860923 0.0035085874 -0.0452896 -0.008097939 -0.031469803 0.0101606855
0.0023767184 0.008682186 -0.0023790512 -0.012682963 0.012238293 -0.00057432335 0.01159337 -0.012630177
0.0035995767 0.011765735 -0.0008353513 0.009782547 -0.006068238 0.008879634 -0.0057024765 -0.010347214
0.00197676 -0.010323616 0.0060741813 0.0023264624 0.0059245117 0.013759366 -0.0073462194 -0.007011481
0.006704822 -0.0108392695 -0.011012781 -0.016516622 0.021236418 -0.0077234204 0.03361382 0.017876443
0.017587405 -0.04452356 -0.014344922 -0.013169502 0.0007488403 0.017323362 -0.006887825 -0.0098302495
0.014517831 -0.013232281 0.025054723 -0.0137643935 0.00735775 -2.1527172e-05 -0.014415349 -0.005280791
0.044198588 0.004337471 -0.020270297 -0.008969482 -0.010970912 0.046428684 0.017656263 -0.005316749
-0.0042479024 -0.010863385 0.018589731 -0.014328962 -0.0062601673 -0.013863237 -0.0014220506 0.023994053
0.0074830474 -0.01576253 0.008475776 -0.004182369 0.0141964825 0.011299799 0.018864047 0.002839686
0.004242828 0.0023350043 -0.0012445977 0.014983515 0.009067845 -0.0002721679 0.010230785 0.01372528
-0.007333373 0.005670641 0.0050639994 0.0004288829 -0.009704343 0.022911789 -0.036787234 0.00052003865
-0.025998903 0.014919439 -0.0053851586 -1.2339209e-05 0.0005937471 0.00084897236 0.01034271 0.014883975
00000000: d4c4 53bc 4403 9c3b 4791 4d3b 7048 c3bb
00000010: baaf c6bc 33b3 94bc 6702 bf3b 109a 32b9
00000020: e266 d63c 6d92 caba b04d 893c 83ac 0bbd
00000030: 4761 9b3c 74b7 b13b 1e57 7fbc ecb3 8d3c
00000040: 6eef 083b 7e99 9e3a 90c6 963c 36d5 083c
00000050: 9fbe 133c 37eb bebc f654 f1bb b4ac 9dbb
00000060: 9407 e23c 3c65 0cbd 3545 23bd 54f0 653b
00000070: 9681 39bd 38ad 04bc 7be6 00bd 0179 263c
00000080: b8c2 1b3b ba3f 0e3c dbe9 1bbb 34cc 4fbc
00000090: 1f83 483c 308e 16ba 1ef2 3d3c cdee 4ebc
000000a0: e0e6 6b3b 12c5 403c 7afb 5aba fa46 203c
000000b0: 12d8 c6bb e27b 113c d7db babb 5c87 29bc
000000c0: 888c 013b 6224 29bc ed09 c73b 9077 183b
000000d0: 6822 c23b f76e 613c 8eb8 f0bb 91c0 e5bb
000000e0: 20b4 db3b 3197 31bc f46e 34bc de4d 87bc
000000f0: fff7 ad3c bf14 fdbb a5ae 093d 9e71 923c
00000100: 7613 903c 565e 36bd f706 6bbc e5c4 57bc
00000110: d24d 443a b9e9 8d3c 44b3 e1bb 0e0f 21bc
00000120: 32dc 6d3c 36cc 58bc 903f cd3c 0d84 61bc
00000130: 4819 f13b 4095 b4b7 5b2e 6cbc 7c0a adbb
00000140: 9409 353d 5821 8e3b e50d a6bc bcf4 12bc
00000150: 57bf 33bc 012c 3e3d dea3 903c 2038 aebb
00000160: fd31 8bbb 57fc 31bc 7e49 983c 06c4 6abc
00000170: 1722 cdbb a122 63bc 1a64 baba 2d8f c43c
00000180: 5a34 f53b 6c20 81bc fbdd 0a3c 410c 89bb
00000190: 5d98 683c cb22 393c c688 9a3c 071a 3a3b
000001a0: 6c07 8b3b df06 193b c521 a3ba 6b7d 753c
000001b0: 4c91 143c c2b1 8eb9 069f 273c ffdf 603c
000001c0: cb4c f0bb c9d0 b93b e8ef a53b b0db e039
000001d0: f7fe 1ebc 81b1 bb3c 36ae 16bd 3453 083a
000001e0: a7fb d4bc aa70 743c fc75 b0bb 8004 4fb7
000001f0: b2a5 1b3a 928d 5e3a 7874 293c eadb 733c

layers.0.semantic_attention.project.2.weight f4 [1, 128]
0.009265723 -0.03722521 0.017827127 0.034300532 0.041361496 0.06321967 0.027967263 0.0026986976
0.007781837 0.0035032835 -0.020728754 -0.050433174 -0.08873588 0.048789486 0.03274089 -0.008933364
0.029700734 0.013256491 -0.06403146 -0.02938946 -0.06932593 0.05618024 -0.0003231594 -0.0074551804
-0.07726367 0.07388664 -0.06482304 0.0016547949 0.044400882 0.0018176265 -0.06969407 0.042039193
-0.04398298 0.004401428 0.01895943 0.04475964 -0.016390951 -0.040242836 -0.09720548 0.0015607364
-0.036081005 0.020873751 -0.019208455 -0.032465827 0.08915004 0.015088964 0.028641958 -0.036194943
-0.041504588 0.052089624 -0.025732031 0.020605799 -0.009823162 -0.07925656 0.035596497 0.023743743
-0.0069526588 0.050909895 -0.0058585186 -0.033145778 -0.032106746 0.041766364 0.055876877 -0.009975486
-0.023299001 -0.0817778 0.0054876194 -0.019360416 0.04270457 0.035047986 0.028606107 -0.0044491664
-0.064630024 0.042750314 -0.09435261 -0.023743898 -0.0070518134 -0.046082437 -0.00078596384 0.012334815
-0.10490398 -0.019326553 -0.028459674 0.021017017 -0.05640894 -0.06256745 0.036717042 0.030484058
0.0037155275 0.009972258 -0.035290398 -0.021880774 -0.05942235 -0.005511815 0.020821022 -0.059918635
0.012276855 0.03168248 -0.04751966 0.07297361 -0.06668348 -0.03602235 -0.07914876 0.04405697
-0.016188357 0.04753354 -0.049368575 -0.072219685 -0.056949396 0.030902887 -0.021488052 -0.027218273
-0.011068438 0.026646087 0.024156652 -0.04630815 0.02257249 -0.010475988 0.08597475 0.04628825
-0.06016687 -0.0037838542 -0.027177183 -0.000494126 0.014316395 -0.066805094 0.009964241 -0.066353284
00000000: 42cf 173c 7679 18bd 320a 923c b77e 0c3d
00000010: ac6a 293d 5079 813d 9a1b e53c a2dc 303b
00000020: c8fe fe3b 5897 653b 59cf a9bc 0493 4ebd
00000030: 28bb b5bd 7cd7 473d 501b 063d 3f5d 12bc
00000040: f44e f33c c131 593c ed22 83bd 2ac2 f0bc
00000050: c1fa 8dbd 401d 663d b86d a9b9 964a f4bb
00000060: 6a3c 9ebd e151 973d f1c1 84bd b4e5 d83a
00000070: b3dd 353d 6d3d ee3a c4bb 8ebd 4a31 2c3d
00000080: 7f27 34bd db39 903b ce50 9b3c e255 373d
00000090: 5146 86bc acd5 24bd ab13 c7bd a091 cc3a
000000a0: adc9 13bd 6eff aa3c 0d5b 9dbc e3fa 04bd
000000b0: 4c94 b63d b437 773c 8aa2 ea3c 2641 14bd
000000c0: b700 2abd ee5b 553d fbcb d2bc 7ecd a83c
000000d0: 54f1 20bc 4351 a2bd a2cd 113d 3d82 c23c
000000e0: 21d3 e3bb e586 503d d1f8 bfbb dec3 07bd
000000f0: 5d82 03bd 3513 2b3d 27df 643d 3970 23bc
00000100: 8cdd bebc 1f7b a7bd 7dd1 b33b bc99 9ebc
00000110: fdea 2e3d 7a8e 0f3d 5b57 ea3c 50ca 91bb
00000120: bf5c 84bd f41a 2f3d f13b c1bd 9082 c2bc
00000130: e612 e7bb f0c0 3cbd 2409 4eba f717 4a3c
00000140: e6d7 d6bd b852 9ebc 4324 e9bc e12b ac3c
00000150: 100d 67bd 5d23 80bd 9c64 163d b4b9 f93c
00000160: 3580 733b ae62 233c aa8c 10bd 4f3f b3bc
00000170: da64 73bd 759c b4bb d990 aa3c 3e6d 75bd
00000180: dd24 493c 7dc5 013d faa3 42bd 3073 953d
00000190: 5991 88bd 2c8c 13bd bf18 a2bd 1575 343d
000001a0: 729d 84bc 87b2 423d b436 4abd eae7 93bd
000001b0: c543 69bd 0d28 fd3c b607 b0bc dbf8 debc
000001c0: 6558 35bc e548 da3c 2ce4 c53c 9dad 3dbd
000001d0: f1e9 b83c 7aa3 2bbc 8813 b03d bf98 3d3d
000001e0: 8971 76bd 8afa 77bb afa2 debc 3c88 01ba
000001f0: 508f 6a3c 1cd1 88bd 0e41 233c 3be4 87bd

predict.weight f4 [3, 64]
0.006189858 0.047848955 -0.08595558 -0.18732604 0.12682584 -0.20151727 0.07727715 0.19071229
-0.109318696 -0.08493596 -0.074385256 0.016017258 -0.18451567 -0.17522192 -0.18057916 0.16669981
-0.15112041 0.16666803 -0.09472191 0.17162396 -0.18915573 -0.12532948 -0.1844239 0.094824925
0.07198081 0.18693262 0.016851982 -0.042885967 -0.116003804 -0.15978637 -0.2005025 -0.16908172
-0.12934461 0.14545116 0.15312079 -0.07940478 0.12194449 -0.1605411 -0.09263453 0.09701581
0.18243824 -0.07856021 -0.10370809 -0.14986809 0.07955679 0.15691987 -0.1303654 -0.0013546005
0.14597741 -0.11069247 0.0048545673 0.1306697 -0.20393002 -0.12513867 0.0063709463 -0.11961769
0.051747788 -0.050656445 -0.040279035 0.0022891015 0.14536566 0.042482857 -0.19343956 -0.19335973
0.12384112 -0.1522139 0.115044124 -0.008734509 -0.049609523 0.02927817 -0.14904846 0.033993952
0.04177999 -0.09646114 0.15905763 0.074071325 0.1658372 -0.104494385 0.08638683 0.11917125
-0.0795798 -0.0772146 -0.0070322366 0.17126809 0.12484553 -0.12114171 0.10406898 -0.18326943
-0.16996 -0.04404418 -0.18374832 0.15996511 -0.14302808 0.113872096 0.17839342 -0.037180696
0.15095241 -0.1556135 -0.1310821 0.10587096 -0.040829316 0.14767882 0.13860649 -0.053969186
-0.023506971 -0.091873676 -0.08445971 0.1728392 0.15796566 -0.058841772 -0.13316935 -0.106793344
-0.091387086 0.05025165 0.19989114 -0.03961169 0.14241992 0.02467669 0.04878151 -0.20266765
-0.095364206 -0.11858609 0.13082162 0.1334429 -0.099499404 -0.15085138 0.047973756 0.18333259
0.21775204 0.10784731 -0.083018295 -0.19508767 0.061925296 -0.14914887 -0.14235637 -0.14985162
0.17044434 0.117690586 0.08518331 -0.12010268 0.11645453 0.1286097 0.17878641 -0.010564725
0.11192376 -0.06362827 0.054880958 -0.0145046245 0.13770321 0.129536 0.12778561 0.15371926
0.022788009 -0.06732243 0.03671171 -0.14282686 0.12739742 0.145583 -0.046389606 0.17450112
-0.11267957 0.1865642 0.10065361 -0.13455176 0.15457746 0.039591543 -0.1452421 -0.09158173
0.0023807448 0.18450403 0.080834985 -0.11525373 -0.15363081 0.13750261 0.18074176 0.048235632
-0.120711386 -0.15301429 -0.07248534 -0.12131687 -0.052482415 -0.1805332 -0.18351369 0.18930854
-0.17685573 0.15899731 -0.1486817 -0.12796855 0.14272618 0.09070717 0.08210051 -0.0069847032
00000000: 4bd4 ca3b 44fd 433d 7b09 b0bd 66d2 3fbe
00000010: a2de 013e 8b5a 4ebe 7b43 9e3d 154a 433e
00000020: 7be2 dfbd e8f2 adbd 4c57 98bd a036 833c
00000030: adf1 3cbe 606d 33be bee9 38be 5bb3 2a3e
00000040: 4fbf 1abe 06ab 2a3e 90fd c1bd 31be 2f3e
00000050: 0ab2 41be 5f56 00be 9ed9 3cbe 9233 c23d
00000060: ad6a 933d 446b 3f3e 2b0d 8a3c 32a9 2fbd
00000070: 6793 edbd 0a9f 23be 8750 4dbe c223 2dbe
00000080: ea72 04be 26f1 143e b2cb 1c3e f99e a2bd
00000090: 08be f93d e364 24be 2cb7 bdbd 3ab0 c63d
000000a0: 17d1 3a3e 2de4 a0bd e864 d4bd 0577 19be
000000b0: acee a23d 9aaf 203e 827e 05be da8c b1ba
000000c0: 1a7b 153e bcb2 e2bd 1013 9f3b 47ce 053e
000000d0: 08d3 50be 5a24 00be 5fc3 d03b 1ffa f4bd
000000e0: 7df5 533d 227d 4fbd a1fb 24bd c004 163b
000000f0: bcda 143e 8102 2e3d 0515 46be 1800 46be
00000100: 6aa0 fd3d f6dd 1bbe 419c eb3d 301b 0fbc
00000110: 5b33 4bbd c6d8 ef3c 29a0 18be 3e3d 0b3d
00000120: 7f21 2b3d 6b8d c5bd 01e0 223e b5b2 973d
00000130: 3ad1 293e 2701 d6bd 94eb b03d 0e10 f43d
00000140: bcfa a2bd b022 9ebd ad6e e6bb e760 2f3e
00000150: 03af ff3d 2519 f8bd 1e22 d53d fbaa 3bbe
00000160: ff09 2ebe ac67 34bd 8528 3cbe e5cd 233e
00000170: f475 12be c635 e93d c4ac 363e c94a 18bd
00000180: 4593 1a3e 2559 1fbe 633a 06be e0d2 d83d
00000190: a43c 27bd 1e39 173e dcee 0d3e cb0e 5dbd
000001a0: b191 c0bc 4428 bcbd 36f9 acbd c2fc 303e
000001b0: c0c1 213e 1204 71bd 8c5d 08be 78b6 dabd
000001c0: 2729 bbbd add4 4d3d 43b0 4c3e de3f 22bd
000001d0: 87d6 113e c526 ca3c 1fcf 473d 1c88 4fbe
000001e0: 4f4e c3bd 44dd f2bd 1af6 053e 41a5 083e
000001f0: 58c6 cbbd c978 1abe 2180 443d 8abb 3b3e
00000200: 64fa 5e3e 0ddf dc3d 7f05 aabd 10c5 47be
00000210: 61a5 7d3d 7bba 18be dec5 11be b472 19be
00000220: f688 2e3e c307 f13d 9674 ae3d 65f8 f5bd
00000230: b67f ee3d 43b2 033e c913 373e ab17 2dbc
00000240: 4938 e53d 8a4f 82bd dbca 603d cea4 6dbc
00000250: 1202 0d3e 16a5 043e 3bda 023e 9568 1d3e
00000260: ebad ba3c 58e0 89bd 055f 163d 3441 12be
00000270: 7874 023e b613 153e 0703 3ebd 6cb0 323e
00000280: 8cc4 e6bd b00a 3f3e 7b23 ce3d f0c7 09be
00000290: 8e49 1e3e be2a 223d 58ba 14be 348f bbbd
000002a0: 4506 1c3b a0ee 3c3e d08c a53d 260a ecbd
000002b0: 6551 1dbe 7ccd 0c3e 5e14 393e ba92 453d
000002c0: 8837 f7bd c7af 1cbe 3273 94bd fb74 f8bd
000002d0: cdf7 56bd b2dd 38be 03eb 3bbe 19da 413e
000002e0: ab19 35be 31d0 223e 0440 18be 300a 03be
000002f0: d026 123e aec4 b93d 5024 a83d f0df e4bb

predict.bias f4 [3]
-0.044960298 -0.056464903 0.033262238
00000000: 4a28 38bd be47 67bd fc3d 083d
